uncertainty_quantification/tb_params.npz (npz, 1978 bytes, 4 tensors)

Cpp_sigma_interlayer f8 [10]
0	0x406778a95d394dba	187.77067433540452
1	0xc064e2056db2b4a1	-167.06316265967783
2	0x405d08115b68c8d9	116.12605939133518
3	0xc04ded0ff0cc7525	-59.852048969109354
4	0x403325be10daeea9	19.147431424570332
5	0x3f9c173d326ef340	0.0274323999435524
6	0xc010941bd97720aa	-4.1446374873122895
7	0x40046fd3c5777d10	2.554603140553475
8	0xbfe95f2ad39348c3	-0.7928671009379048
9	0x3fbc9bd391c27754	0.11175272282204435

Cpp_sigma_intralayer f8 [10]
0	0xc014a01fed21187e	-5.156371789116859
1	0x401535c8a3a207a8	5.3025231902737815
2	0xc012242a699c3974	-4.53531804100054
3	0x4001611b7749f4cc	2.1724156684345868
4	0xbf6a5c131e272ad5	-0.0032177327532044533
5	0xbfe4bc4cc17df167	-0.647985818780893
6	0x3fd8de8e11cee632	0.3885836767109111
7	0xbfbc518230005c98	-0.11061872169408316
8	0x3f9064d49815eaa8	0.01600963762528332
9	0xbf4ef7e559fba229	-0.0009450788383818565

Cpp_pi_interlayer f8 [10]
0	0xc07a3e3ecf45b17a	-419.89033438896115
1	0x40795b45f36ed345	405.7045778588402
2	0xc07686aa8e930258	-360.4166398756547
3	0x4071bc8ed5c3d262	283.7848718308725
4	0xc067b75ec0c5487a	-189.7303165295778
5	0x4059ca1b3e7b712e	103.15791284613508
6	0xc045b9c2d8aaf8c9	-43.45125873897775
7	0x402a7cde100045ea	13.243881702454889
8	0xc004b6fc372851fc	-2.5893482503108753
9	0x3fceec299cc31a7a	0.24158210901642346

Cpp_pi_intralayer f8 [10]
0	0x3fd930f4283eee65	0.39361289911514624
1	0xbfd940b8559dd31f	-0.3945751987551364
2	0x3fd7383bce2c660c	0.3628072274601386
3	0xbfd2d2f4d00805e3	-0.2941257506900838
4	0x3fc90ab5331d8efa	0.19563927646515095
5	0xbfb59ea52473fd66	-0.08445198192565825
6	0x3f922f212e0c84f4	0.017757910190202744
7	0xbf28f467b3f9bde0	-0.00019038930803415201
8	0xbf41574f00b726bd	-0.0005292068248589837
9	0x3f0f83d80dfd4f55	6.0110121693184256e-05
