uncertainty_quantification/tb_params.npz (npz, 1978 bytes, 4 tensors)

Cpp_sigma_interlayer f8 [10]
000000 4c 77 10 89 b5 89 ae c0 83 e5 6a 90 bc 90 dc c0
       -3908.854561342776 -29250.94631454862
000010 aa 22 67 f1 62 39 d3 c0 a1 c6 62 d9 ee af e7 c0
       -19685.545984062053 -48511.46403635783
000020 92 01 65 ba 86 7a e3 c0 a2 f7 91 ba f3 5b e7 c0
       -39892.2102532416 -47839.616524680765
000030 13 c2 0d 1b 52 41 dc c0 c8 b9 80 96 ce 36 d4 c0
       -28933.282901229406 -20699.227935964038
000040 a7 61 18 7d bb e4 ba c0 3e 5b 30 25 a7 47 a5 c0
       -6884.732377551881 -2723.826455603731

Cpp_sigma_intralayer f8 [10]
000000 28 a4 8a 5c 4c c5 61 41 db ee b2 ec a8 9d 60 41
       9316962.891923979 8711495.39684241
000010 94 b9 b1 d4 11 25 5b 41 97 f2 60 b3 34 3f 53 41
       7115847.323347468 5045458.802792213
000020 fd a1 be 54 7d 7a 47 41 a7 4c a9 5d 71 38 38 41
       3077370.6620676504 1587313.3658645542
000030 71 36 05 95 fa 94 24 41 22 f2 96 a0 97 98 0b 41
       674429.2910553945 226066.95341290632
000040 1e 29 3c fb a4 90 ea 40 e9 8b e6 a7 da c9 be 40
       54405.155668335254 7881.854124459417

Cpp_pi_interlayer f8 [10]
000000 ef 76 9e 77 cf 6f f7 40 6f be c3 4e 22 c4 a0 40
       95996.96670385798 2146.0670071763957
000010 d6 b1 e7 19 8b 32 e2 40 b3 80 37 cc d8 8b ef c0
       37268.34691223844 -64606.774928809515
000020 7e 8b b4 5a 2e 87 e1 c0 24 80 2b de 52 cc f1 c0
       -35897.44857241864 -72901.1792407041
000030 6b c0 03 53 2a 96 df c0 a9 09 aa c1 e6 a5 dc c0
       -32344.661316812428 -29335.60557032531
000040 ed 51 11 ae 25 dd bb c0 48 91 f3 b4 b5 21 af c0
       -7133.147187311651 -3984.854896174893

Cpp_pi_intralayer f8 [10]
000000 53 44 df 87 bf 04 59 c1 6a ab f6 ea 55 52 57 c1
       -6558462.12300213 -6113623.671305517
000010 20 93 05 94 1d db 52 c1 57 7c 33 25 d6 4a 4a c1
       -4942966.312840253 -3446188.290633719
000020 b8 a2 ce 62 a4 46 3f c1 82 80 f5 55 42 2f 2f c1
       -2049700.3859655093 -1021857.1678886565
000030 6d 76 ca 78 ea 52 19 c1 c3 62 ec 86 66 e6 ff c0
       -414906.61795983353 -130662.4079402788
000040 55 64 0f c2 b1 4e dc c0 b8 a6 2a 7b c6 e8 ab c0
       -28986.777469490033 -3572.3876584366335
